rust-tools/aimbot-api/model.onnx (onnx, 124144 bytes, 8 tensors)

sequential_1/time_distributed_1/Cast_6/ReadVariableOp:0 f4 [32, 2]
0	0x3e39333e	0.18085954
1	0xbbb51f40	-0.005527407
2	0x3ea67a54	0.32515204
3	0xbda1dab1	-0.0790304
4	0xbda1e660	-0.07905269
5	0xbe910d1c	-0.28330314
6	0xbe3acb2a	-0.18241563
7	0x3d93dcb8	0.07219833
8	0xbe17863c	-0.147973
9	0x3eb4afea	0.35290462
10	0xbe934dc2	-0.28770262
11	0x3d43885a	0.047737457
12	0xbea00bc3	-0.31258973
13	0x3d3a572c	0.04549329
14	0x3cdea420	0.02717787
15	0x3e989282	0.29799277
16	0x3e81e01d	0.25366297
17	0xbea3012f	-0.3183684
18	0x3ee9ecf4	0.45688593
19	0x3e98c205	0.29835525
20	0xbe9543d8	-0.29153323
21	0xbe110814	-0.14163238
22	0x3eb1e4b2	0.34744793
23	0x3e98736f	0.2977557
24	0xbe37379e	-0.1789231
25	0xbea0f566	-0.31437224
26	0x3e1f9907	0.15585719
27	0x3e84f382	0.25967032
28	0x3ea2807b	0.31738648
29	0x3e4dc3cf	0.20094226
30	0x3d4b8579	0.049687836
31	0x3ef874b2	0.4852653
32	0x3ebcb859	0.36859396
33	0x3e970766	0.29497832
34	0xbe916072	-0.28393894
35	0xbe60b1ba	-0.21942797
36	0xbd83d2ec	-0.064367145
37	0x3de6469c	0.112439364
38	0x3be50a95	0.006989787
39	0x3ed7ec0f	0.42172286
40	0xbe277cd5	-0.16356213
41	0x3e848ec7	0.2589018
42	0x3e214d1c	0.15752071
43	0x3e100b63	0.14066844
44	0xbe5d4a23	-0.21610312
45	0x3ede7203	0.4344636
46	0xbea3a9b6	-0.31965417
47	0x3e7499d5	0.23886807
48	0xbeb1f8ba	-0.34760076
49	0x3e8a0cff	0.2696304
50	0xbebb8521	-0.36625007
51	0x3e97142b	0.29507574
52	0xbdc5bcc6	-0.09655146
53	0xbe82d012	-0.2554937
54	0x3ed796f6	0.42107362
55	0xbe5641f1	-0.20923592
56	0xbb668400	-0.0035173893
57	0xbe27d77f	-0.16390799
58	0xbdb17ec0	-0.08666754
59	0xbda28a10	-0.079364896
60	0x3ae79436	0.0017668072
61	0xbe4fc13d	-0.20288558
62	0x3ea57edf	0.32323357
63	0xbe945cb4	-0.28976977

sequential_1/time_distributed_1/Add_20/ReadVariableOp:0 f4 [2]
0	0x3e1c23a5	0.15247972
1	0x3e29269a	0.16518632

sequential_1/lstm_1_2/lstm_cell_1/add_1/ReadVariableOp/resource:0 f4 [128]
0	0x00000000	0.0
1	0xbc34bedb	-0.011031832
2	0xbbd6f2a3	-0.0065596863
3	0x00000000	0.0
4	0xbdecede7	-0.11568814
5	0xbc7218d1	-0.0147764245
6	0xbc363b27	-0.011122501
7	0xbd91e257	-0.07123249
8	0xbc4015a4	-0.0117239095
9	0x3ecae470	0.3962741
10	0x00000000	0.0
11	0x3dae50b8	0.0851149
12	0x00000000	0.0
13	0x3e475f86	0.19470033
14	0x3e827765	0.25481716
15	0xbce0b8db	-0.027431896
16	0xbc52b45f	-0.012860387
17	0xb9143c81	-0.0001413692
18	0x00000000	0.0
19	0xbc9ed3cc	-0.019388102
20	0xba98c655	-0.0011655787
21	0x3d121b43	0.03567053
22	0xbcae2602	-0.021258358
23	0xbc89134c	-0.016732834
24	0xbca9b44f	-0.02071586
25	0x00000000	0.0
26	0xbc843a0f	-0.016140966
27	0xbdf9841e	-0.121834025
28	0xbc375898	-0.011190556
29	0x00000000	0.0
30	0xb8249714	-3.924135e-05
31	0x3be520d0	0.006992437
32	0x3f800000	1.0
33	0x3f790e2a	0.9728724
34	0x3f7e51b7	0.99343437
35	0x3f800000	1.0
36	0x3f654e9d	0.8957308
37	0x3f7c3873	0.98523635
38	0x3f7d1ea5	0.98874885
39	0x3f6bb244	0.92068887
40	0x3f7cf1b1	0.9880629
41	0x3f7b5a87	0.9818501
42	0x3f800000	1.0
43	0x3f8409b8	1.0315466
44	0x3f800000	1.0
45	0x3f782e39	0.9694553
46	0x3f72c2c5	0.94828445
47	0x3f6c098a	0.92202055
48	0x3f7d3938	0.98915434
49	0x3f7ff191	0.99977976
50	0x3f800000	1.0
51	0x3f55c968	0.83510447
52	0x3f7f97ed	0.99841195
53	0x3f7119c0	0.94179916
54	0x3f75f722	0.9608022
55	0x3f7bc047	0.98340267
56	0x3f7abdf6	0.9794611
57	0x3f800000	1.0
58	0x3f58805b	0.84570855
59	0x3f617bde	0.8807963
60	0x3f7d2562	0.98885167
61	0x3f800000	1.0
62	0x3f7ffdb8	0.9999652
63	0x3f80e1dd	1.0068928
64	0x00000000	0.0
65	0x3dba1808	0.09086615
66	0xbd1c4106	-0.03814795
67	0x00000000	0.0
68	0xbdc6e318	-0.097112834
69	0xbd14d920	-0.03633988
70	0xbd3c939f	-0.04603922
71	0x3dc6dd61	0.097101934
72	0xbc19c0ef	-0.009384378
73	0x3e9884d2	0.29788834
74	0x00000000	0.0
75	0x3e08c1ae	0.13355133
76	0x00000000	0.0
77	0x3dd00da6	0.10158853
78	0x3e3167b4	0.17324716
79	0x3dcef9b0	0.10106218
80	0x3e0bd04c	0.13653678
81	0xbcb8dd5e	-0.022566494
82	0x00000000	0.0
83	0x3d3d992c	0.046288654
84	0xbd9030a7	-0.0704053
85	0x3da1c0fc	0.07898137
86	0x3d44aaa3	0.048014294
87	0xbcaa5b8d	-0.020795608
88	0xbcd1df8b	-0.025619289
89	0x00000000	0.0
90	0xbd9defb0	-0.077117324
91	0x3da20746	0.079115435
92	0xbc5a450c	-0.013322126
93	0x00000000	0.0
94	0xbd04a939	-0.032387946
95	0x3ce56b62	0.028005306
96	0x00000000	0.0
97	0xbc31a0d3	-0.010841566
98	0xbbd7188b	-0.006564205
99	0x00000000	0.0
100	0xbde15f01	-0.11004449
101	0xbc740007	-0.014892585
102	0xbc3659e7	-0.011129833
103	0xbd82e889	-0.06392009
104	0xbc3b3855	-0.011427005
105	0x3efd6409	0.49490383
106	0x00000000	0.0
107	0x3d9d6952	0.07686104
108	0x00000000	0.0
109	0x3e49cdc7	0.19707404
110	0x3e61ecac	0.2206294
111	0xbcd848e7	-0.02640195
112	0x3c6e2d8d	0.014537227
113	0xb933cf27	-0.0001714794
114	0x00000000	0.0
115	0xbc8f22c4	-0.017472632
116	0xbaa1ea81	-0.0012353213
117	0x3cae3684	0.02126623
118	0xbc90d9aa	-0.017681915
119	0xbc88def5	-0.016707877
120	0xbcac89e0	-0.021061838
121	0x00000000	0.0
122	0xbd709007	-0.058731105
123	0xbdee2388	-0.11627871
124	0xbc374bee	-0.011187537
125	0x00000000	0.0
126	0xb8375a01	-4.3714423e-05
127	0x3bf17912	0.007369169

sequential_1/lstm_1_2/lstm_cell_1/Cast_1/ReadVariableOp/resource:0 f4 [32, 128]
0	0xbe249720	-0.16073275
1	0x3db4bc2a	0.08824952
2	0xbd0f751a	-0.035023786
3	0xbc38f003	-0.011287692
4	0x3d7f48c3	0.06232525
5	0xbe213b25	-0.15745218
6	0xbd4d283f	-0.05008721
7	0x3d85da9b	0.06535836
8	0xbd9f47cf	-0.07777368
9	0xbd9d9e9e	-0.076962695
10	0x3e433f30	0.19067073
11	0xbe4bfecb	-0.19921415
12	0x3d3988fc	0.045296654
13	0x3d25f3e9	0.040515814
14	0xbab44c0d	-0.0013755575
15	0x3ddcd203	0.10782244
16	0xbdfd7be3	-0.12377145
17	0xbc0451c4	-0.008076135
18	0x3d879437	0.066200666
19	0xbe315608	-0.17317975
20	0xbd08c334	-0.033389285
21	0x3d865ba7	0.0656045
22	0x3e182053	0.1485608
23	0xbd9abf7a	-0.075560525
24	0x3b00f6f0	0.0019678436
25	0x3ce5591c	0.027996592
26	0xbd459a3f	-0.048242804
27	0xbd89cf0d	-0.06728945
28	0xbc82ef66	-0.015983295
29	0x3e219079	0.15777768
30	0x3d4d5c98	0.050137132
31	0xbd7e9a1c	-0.06215869
32	0xbe4307d4	-0.19045955
33	0x3d9f8c1f	0.07790398
34	0x3d3958ea	0.04525081
35	0xbd608e20	-0.05482304
36	0x3dd7e8f2	0.10542478
37	0xbd15fcac	-0.03661792
38	0xbdb50d95	-0.08840481
39	0xbd2f632d	-0.04281919
40	0xbdb0664f	-0.08613264
41	0xbd1e674d	-0.038672734
42	0x3da7ce61	0.081936605
43	0x3c816ccd	0.01579895
44	0xbe2bb689	-0.1676885
45	0xbd53cc9d	-0.051708806
46	0xbdb6dcde	-0.08928846
47	0x3c961053	0.01831833
48	0xbcb782d5	-0.022401253
49	0x3d7fe3b5	0.062473018
50	0xbdde974f	-0.108687036
51	0xbd99ba7e	-0.07506274
52	0x3d5ca0ff	0.053864475
53	0xbddb2b73	-0.10701647
54	0x3e067be1	0.13133194
55	0xbca2f96f	-0.01989433
56	0xba6e86b5	-0.00090990524
57	0xbe096b50	-0.13419843
58	0x3dc8edf8	0.09811014
59	0x3a992b45	0.0011685869
60	0x3d8d2522	0.06891848
61	0x3be80a09	0.0070812744
62	0x3da997e2	0.082809225
63	0x3d7a7432	0.06114597
64	0xbcc6f142	-0.024284963
65	0xbd8f9631	-0.070110686
66	0xbdfd6ae4	-0.123739034
67	0x3d67c0d9	0.0565804
68	0xbe26ef96	-0.16302332
69	0x3de6110c	0.1123372
70	0xbc0f67c9	-0.008752772
71	0x3dbbe7e9	0.09175093
72	0xbdbaf462	-0.091286436
73	0x3d652e6f	0.055952486
74	0x3cecfe0d	0.028929735
75	0xbd3bb3a8	-0.04582563
76	0xbde37265	-0.111058034
77	0xbd05ff35	-0.032714088
78	0xbd82bb54	-0.06383386
79	0x3b2f0e97	0.0026711577
80	0xbe10da7b	-0.14145844
81	0xbdf27e90	-0.11840546
82	0x3c9591c2	0.01825798
83	0xbaca7385	-0.0015445804
84	0x3bddb055	0.006765405
85	0x3e304122	0.17212346
86	0x3d933c98	0.07189292
87	0x3e3dc800	0.18533325
88	0xbd1eeeae	-0.03880184
89	0xbbe75419	-0.007059586
90	0x3c7dcd7b	0.015490885
91	0xbd77dbfb	-0.060512524
92	0xbd2030c2	-0.039109
93	0x3df49c16	0.119438335
94	0x3e0bebe5	0.13664205
95	0x3da07210	0.07834256
96	0x3cf67217	0.0300837
97	0xbe22643e	-0.15858552
98	0x3c186966	0.009302473
99	0x3e4cade2	0.19988206
100	0xbdd40054	-0.10351625
101	0xbd2e36a3	-0.042532574
102	0x3d982489	0.074288435
103	0x3d224b86	0.039622806
104	0xbca9d2c6	-0.020730387
105	0xbd8e5544	-0.06949857
106	0xbd3e603d	-0.0464785
107	0xbd4d3e5d	-0.050108302
108	0x3d13ee94	0.036116198
109	0x3d3b06a9	0.04566065
110	0x3d805679	0.06266493
111	0xbe1f2ebe	-0.15545174
112	0x3d986f47	0.074430995
113	0x3c639755	0.013891061
114	0x3db793f2	0.08963765
115	0xbd701d5f	-0.05862176
116	0x3c6e4d4c	0.014544796
117	0x3d2d1899	0.042259786
118	0x3cfe35d2	0.031031523
119	0x3ce4bd88	0.027922407
120	0x3caa28fa	0.020771492
121	0xbd74f0da	-0.059800006
122	0xbc04235c	-0.008065071
123	0xbd35da01	-0.044397358
124	0xbe1da4c7	-0.15394889
125	0x3ddd7ea6	0.10815172
126	0xbe368e67	-0.1782776
127	0x3db9f15e	0.0907924
128	0xbdfb5071	-0.12271202
129	0xbd2b01c5	-0.041749734
130	0x3c331e32	0.010932492
131	0xbde9556b	-0.11393245
132	0x3d1f4812	0.03888709
133	0xbc958045	-0.01824964
134	0x3da57e38	0.08080715
135	0xbd9bb2a9	-0.07602436
136	0xbcaf7fa9	-0.021423178
137	0x3d96bd53	0.073603295
138	0xbdd61896	-0.10453908
139	0x3d2ba184	0.04190208
140	0x3e454d95	0.19267876
141	0xbdbb55b1	-0.09147204
142	0xbd393478	-0.045216054
143	0xbc4c309f	-0.012462764
144	0xbe418ef0	-0.18902183
145	0x3c814ceb	0.015783748
146	0x3c9424ff	0.018084047
147	0xbe5ea041	-0.2174082
148	0xbe41456d	-0.1887414
149	0xbdb06b7b	-0.0861425
150	0xbd2876b1	-0.041128818
151	0xbdf53369	-0.11972696
152	0x3d8f80ff	0.07007026
153	0x3d999d6f	0.07500731
154	0xbd9fcc48	-0.078026354
155	0xbe82031e	-0.25393003
156	0x3d04a343	0.03238226
157	0xbdaefdce	-0.08544503
158	0x3dccf381	0.10007382
159	0x3b879ed8	0.0041388087
160	0xbe17eb9d	-0.14835973
161	0xbe35d152	-0.1775563
162	0xbb1056b2	-0.002202433
163	0x3d95083d	0.07276962
164	0xbe0c35a3	-0.13692336
165	0x3d9b12ac	0.07571921
166	0xbe04a83d	-0.12954803
167	0xbde72819	-0.11286945
168	0x3c61844c	0.013764452
169	0xbe5a8758	-0.21340692
170	0xbd7752d6	-0.060381733
171	0xbc87593c	-0.016522042
172	0x3cd3457f	0.025789974
173	0xbc7db730	-0.01548557
174	0xbd46bfc9	-0.048522744
175	0xbd8ea9c0	-0.06965971
176	0xbe17bd24	-0.14818245
177	0xbc8d8242	-0.017274026
178	0x3e272644	0.16323191
179	0x3b947d8e	0.004531569
180	0xbc4eaac8	-0.01261396
181	0xbcbb43fb	-0.022859564
182	0x3d834d19	0.064111896
183	0xbd652dd1	-0.055951897
184	0xbde8eb79	-0.11373038
185	0x3cadcd80	0.021216154
186	0xbe53c45e	-0.20680377
187	0xbe1444ec	-0.14479417
188	0xbe18fd6c	-0.14940423
189	0xbd96db93	-0.07366099
190	0xbdc9d50b	-0.09855088
191	0xbdaae3a7	-0.083442025
192	0xbcb2fd0e	-0.021849182
193	0x3d0b46cd	0.034003068
194	0x3e5db634	0.21651536
195	0xbb8bda38	-0.004267957
196	0x3db2cecf	0.08730852
197	0xbd5d2284	-0.053987995
198	0x3dab80e0	0.0837419
199	0xbde6a433	-0.11261787
200	0x3dbaa4b8	0.09113449
201	0xbd584dc4	-0.052808538
202	0xbd80346e	-0.0626
203	0x3e87b8df	0.26508233
204	0xbdb6b708	-0.08921629
205	0xbe900dac	-0.2813543
206	0xbe36fe52	-0.17870453
207	0xbdd68a96	-0.10475652
208	0x3d9a87eb	0.075454555
209	0x3d4b1a2e	0.049585514
210	0x3caf335d	0.021386797
211	0xbe278c38	-0.16362083
212	0xbe385c1c	-0.18003887
213	0x3c985763	0.018596357
214	0x3dd7eb2f	0.105429046
215	0x3d07f8ce	0.033196263
216	0xbdddb0a5	-0.10824708
217	0x3dceeccc	0.10103759
218	0x3e0b94a0	0.13630915
219	0xbc671929	-0.01410512
220	0x3de4f126	0.11178808
221	0x3d0b2456	0.0339702
222	0x3b932469	0.0044904244
223	0x3d6a1106	0.05714514
224	0xbd80cd8f	-0.06289207
225	0xbd97d75b	-0.07414123
226	0xbbf9df6b	-0.0076255105
227	0xbd526424	-0.051365033
228	0xbd0c75a0	-0.034291863
229	0xbd0441b9	-0.03228924
230	0x3df0c6fa	0.11756702
231	0xbdc1147d	-0.09427736
232	0x3d76a3f9	0.06021497
233	0x3e1b4591	0.15163256
234	0x3d8fad79	0.07015509
235	0xbe3828e6	-0.17984352
236	0xbd853d9c	-0.06505892
237	0x3d0f0cd0	0.03492433
238	0xbb8b2f25	-0.0042475634
239	0x3db7dc25	0.08977536
240	0x3daf15b2	0.0854906
241	0x3d9ff457	0.07810276
242	0x3ddfa025	0.10919217
243	0xbdd40076	-0.103516504
244	0x3d1f73f7	0.038928952
245	0x3dbded60	0.09273791
246	0x3dc1ef4d	0.09469471
247	0xbdee66f2	-0.11640729
248	0xbc9fd312	-0.019509826
249	0xbccfadc6	-0.025351416
250	0x3dd48855	0.10377566
251	0xbe3b067b	-0.18264191
252	0xbe344a96	-0.17606577
253	0xbd901011	-0.070343144
254	0xbd57e032	-0.052704044
255	0x3c26d34c	0.010182213

sequential_1/lstm_1_2/lstm_cell_1/Cast/ReadVariableOp/resource:0 f4 [32, 128]
0	0x3c9a0a38	0.0188037
1	0x3d328a22	0.043588765
2	0xbb82e9a3	-0.003995137
3	0xbd785e48	-0.06063679
4	0xbe843381	-0.25820544
5	0x3d7d18f9	0.061791394
6	0xbda9eb6a	-0.08296855
7	0xbe96d6e1	-0.29460815
8	0xbe041ee5	-0.1290241
9	0x3e55798b	0.20847146
10	0x3e04cdd2	0.12969139
11	0x3e4ed444	0.2019816
12	0xbe243ab6	-0.16038021
13	0x3e5732c5	0.21015461
14	0x3e80ffc5	0.25195137
15	0xbe228c74	-0.15873891
16	0xbd905459	-0.07047338
17	0x3dcbd64d	0.09952984
18	0xbd918672	-0.071057215
19	0xbdbf8ac7	-0.093526416
20	0xbd9c8311	-0.076421864
21	0x3e2753ef	0.16340612
22	0xbe6a29d8	-0.22867525
23	0xbdd927dd	-0.106033064
24	0x3cde9b7a	0.027173746
25	0xbdbd36cd	-0.09238968
26	0xbe0ad97e	-0.13559529
27	0xbe23e7c3	-0.16006379
28	0xbd6e6a42	-0.058206804
29	0xbdf37f4e	-0.11889516
30	0xbda9b7d6	-0.08287017
31	0x3cc4d6a4	0.02402813
32	0xbd62dfd8	-0.055389255
33	0xbd78d6f4	-0.06075187
34	0xbd8241f4	-0.06360236
35	0xbd98963c	-0.0745053
36	0x3c67b0c1	0.0141412625
37	0xbe345c91	-0.17613436
38	0x3d5ea4e1	0.05435646
39	0xbe6aac45	-0.22917278
40	0xbc3dc1ba	-0.011581833
41	0xbe8e7214	-0.2782141
42	0xbd161418	-0.036640257
43	0xbdd39bdd	-0.10332463
44	0xbdea6773	-0.114455126
45	0xbdb7f90b	-0.08983048
46	0x3d6551c9	0.0559862
47	0xbdf40e05	-0.119167365
48	0xbe448bc6	-0.19193944
49	0x3e321b6f	0.17393278
50	0xbccc93a8	-0.024972752
51	0xbe8a6d16	-0.2703635
52	0xbd5da8df	-0.054116126
53	0x3c1978b9	0.009367161
54	0xbe7c3950	-0.24631238
55	0x3e1a3f15	0.15063126
56	0xbdea5179	-0.11441321
57	0xbd5e8034	-0.054321483
58	0xbe81e4bf	-0.25369832
59	0xbe81ce87	-0.2535288
60	0x3d374b8d	0.044749785
61	0xbcc6c3c0	-0.024263263
62	0xbcf00e3a	-0.029303659
63	0xbcae8d82	-0.02130771
64	0xbdd85e9c	-0.1056492
65	0x3dac7102	0.08419992
66	0x3cbe6247	0.023240222
67	0xbdd5bd07	-0.10436445
68	0x3caa0ed9	0.020759033
69	0x3d2df4d1	0.042469803
70	0x3d4e9bca	0.05044154
71	0xbd043197	-0.032273855
72	0xbe04c487	-0.12965594
73	0x3e2b69af	0.16739534
74	0xbdf78b0a	-0.120870665
75	0x3e6ba08c	0.23010463
76	0xbda799f4	-0.08183661
77	0xbd4369a1	-0.047708157
78	0x3e56a95a	0.2096304
79	0x3b443a6d	0.002994205
80	0x3c87561b	0.01652055
81	0xbd96e550	-0.07367957
82	0xbcc41df8	-0.023940071
83	0x3e2d232c	0.16907948
84	0x3dec9f42	0.115538135
85	0xbda7fd49	-0.08202607
86	0x3deb5c08	0.11492163
87	0xbe51a3a8	-0.20472586
88	0xbd3af779	-0.045646165
89	0xbe037c48	-0.12840378
90	0xbdd3e790	-0.103469014
91	0x3e592239	0.21204461
92	0xbdaed840	-0.0853734
93	0xbd38bff4	-0.045104936
94	0x3bd85160	0.0066014975
95	0xbdbb2055	-0.09137026
96	0x3e3615f2	0.17781809
97	0xbe60a71b	-0.21938746
98	0x3d92e636	0.071728155
99	0xbe06074b	-0.1308872
100	0xbcdf2c51	-0.027242811
101	0xbe3b6aec	-0.18302506
102	0xbe08559c	-0.13313907
103	0xbe7fa5dc	-0.24965614
104	0xbdc3f080	-0.09567356
105	0x3ef8a244	0.485613
106	0xbe0cedfa	-0.13762656
107	0xbd89e272	-0.06732644
108	0xbc818a08	-0.015812889
109	0x3e99690f	0.29962966
110	0x3e3f522e	0.18683693
111	0xbe886578	-0.26639915
112	0xbdac0a65	-0.0840042
113	0x3e1fa753	0.15591173
114	0x3e371928	0.1788069
115	0x3e2fbc6a	0.17161718
116	0xbdbc54d2	-0.09195866
117	0xb9957e48	-0.00028513581
118	0xbc893c36	-0.016752344
119	0xbe0256f7	-0.12728487
120	0xbafb685c	-0.0019180882
121	0xbdb22a8e	-0.08699523
122	0x3d92ec1b	0.0717394
123	0xbe1c2e33	-0.15251999
124	0x3dd71898	0.10502738
125	0x3d52631c	0.05136405
126	0xbe1b932f	-0.15192865
127	0x3d093bbe	0.03350424
128	0x3dcd3e14	0.10021606
129	0x3d901ed3	0.07037129
130	0xbd6a5849	-0.0572131
131	0xbd30bfe0	-0.043151736
132	0xbe2f842f	-0.17140268
133	0xbe125267	-0.14289246
134	0x3e21dfaf	0.15807985
135	0x3deecc46	0.11660056
136	0x3d4567a8	0.048194557
137	0x3e1b92f8	0.15192783
138	0xbda86d0e	-0.082239255
139	0x3defbd6a	0.1170605
140	0xbb1e1340	-0.002412036
141	0xbe14fe7e	-0.14550206
142	0x3e128f2f	0.14312433
143	0xbe0e0ae8	-0.13871348
144	0x3d9def5d	0.077116705
145	0x3ce774f8	0.028254017
146	0x3e0a479a	0.13503876
147	0xbe435592	-0.19075611
148	0xbe07a2bd	-0.13245673
149	0x3dfb69ea	0.12276061
150	0x3d3aa836	0.045570575
151	0xbb273e78	-0.0025519412
152	0xbe136bd6	-0.14396605
153	0x3e32b91a	0.17453423
154	0xbdedbf8d	-0.11608801
155	0x3af2db5d	0.001852851
156	0x3da5bb0b	0.08092316
157	0xbdb7c0a7	-0.089722924
158	0x3d795cc8	0.0608795
159	0x3cb4503a	0.022010911
160	0x3e0022dc	0.12513298
161	0xbda62a8e	-0.081135854
162	0x3e34be3f	0.17650698
163	0xbcfc1db8	-0.03077589
164	0xbe440a5c	-0.19144577
165	0xbb217459	-0.0024636
166	0x3dde6dbf	0.10860776
167	0xbca08dcd	-0.019598866
168	0xbe31e1f8	-0.17371356
169	0x3e4e8172	0.20166567
170	0x3cdc96d0	0.026927382
171	0x3e3d89f0	0.1850965
172	0x3e11176a	0.14169088
173	0xbd363f4f	-0.04449397
174	0x3e27f4e6	0.16402015
175	0xbd0d25c2	-0.034459837
176	0x3dba603b	0.09100386
177	0xbe0852c7	-0.13312827
178	0xbd087adc	-0.033320293
179	0x3e1157d5	0.14193662
180	0x3e09f070	0.13470626
181	0x3e38d809	0.18051161
182	0xbc8c8508	-0.017153278
183	0x3e06213f	0.1309862
184	0x3e32315f	0.17401646
185	0xbcfbd580	-0.030741453
186	0x3d17ca49	0.03705815
187	0x3dc86d63	0.09786489
188	0x3de14b49	0.11000688
189	0x3dd3a214	0.10333648
190	0x3dce539c	0.10074541
191	0xbd93d296	-0.072179005
192	0x3e45db50	0.19321942
193	0xbdb32811	-0.087478764
194	0x3dc23592	0.09482874
195	0xbe13187c	-0.14364809
196	0x3c135b26	0.008993899
197	0x3e0d33d9	0.1378931
198	0xbe363636	-0.17794117
199	0x3d9f18df	0.07768416
200	0xbdc8433d	-0.0977845
201	0x3c142f90	0.009044543
202	0xbe16df2f	-0.14733575
203	0xbcfcce70	-0.030860156
204	0x3e3a0f60	0.18169928
205	0x3e1027ac	0.14077634
206	0xbc05d0f4	-0.008167494
207	0x3e2bab82	0.16764644
208	0x3c081e1b	0.008307959
209	0x3e2b6f5a	0.16741696
210	0xbe022af8	-0.12711704
211	0xbe1e4050	-0.15454221
212	0xbe3ca7c7	-0.18423377
213	0xbd6f7798	-0.058463663
214	0x3df1d7ca	0.118087366
215	0x3ca8c349	0.020600932
216	0x3e042648	0.12905228
217	0xbe0f3897	-0.13986431
218	0x3e1d591a	0.15366021
219	0x3dc97228	0.09836227
220	0x3de21c15	0.110405125
221	0xbe2568f3	-0.16153316
222	0xbd05c0f4	-0.032654718
223	0xbd7a885c	-0.0611652
224	0xbe0610de	-0.13092372
225	0xbda19503	-0.0788975
226	0x3e1f9409	0.15583815
227	0x3df95e5c	0.12176201
228	0xbcb38db6	-0.021918159
229	0xbe32f51c	-0.17476314
230	0x3e1e26d2	0.15444496
231	0x3af4209d	0.0018625442
232	0x3e13f78c	0.144499
233	0xbd9c25b8	-0.07624382
234	0xbdcc5386	-0.09976868
235	0xbd9a7dc6	-0.07543521
236	0x3e2a7740	0.16647053
237	0xbdeb76d8	-0.11497277
238	0xbdebe4bc	-0.11518237
239	0x3e45b13b	0.1930589
240	0xbcd8e9f5	-0.026478747
241	0xbbd48240	-0.0064852536
242	0x3d91f888	0.07127482
243	0x3d63ac17	0.05558404
244	0x3e19bb18	0.15012777
245	0x3dd7e5f6	0.105419084
246	0x3d98b6f2	0.07456769
247	0xbe3a30e4	-0.18182713
248	0xbbda89e3	-0.0066692694
249	0x3d9fd870	0.07804954
250	0xbb6050b8	-0.00342278
251	0xbd991e49	-0.074764796
252	0xbd2f2966	-0.04276409
253	0xbdf81efc	-0.12115285
254	0x3e21a4a4	0.15785462
255	0xbdc3338b	-0.095313154

sequential_1/lstm_1/lstm_cell_1/add_1/ReadVariableOp/resource:0 f4 [128]
0	0x3e03bc99	0.12864913
1	0xbccb5d7c	-0.02482485
2	0xbcee44f4	-0.029085614
3	0xbb008d69	-0.0019615537
4	0xb8f6b2bb	-0.00011763485
5	0xbcbd58a1	-0.02311355
6	0x00000000	0.0
7	0xbd3c8d1a	-0.046033002
8	0x38ca800d	9.655962e-05
9	0xbd9dbc71	-0.07701958
10	0x3d082faf	0.0332486
11	0x3bbd5b68	0.0057787187
12	0x3d9c4271	0.0762986
13	0x00000000	0.0
14	0x3d1858b5	0.037193973
15	0xbc97ca78	-0.018529162
16	0x00000000	0.0
17	0xbd9ae5dc	-0.075633734
18	0x00000000	0.0
19	0xbb8fd9b0	-0.004389964
20	0xbdac9e3e	-0.0842862
21	0xbc6f9309	-0.014622458
22	0x3b26fd4a	0.0025480562
23	0x3b5f5352	0.0034076762
24	0x3cab5959	0.020916628
25	0xbb5d65e7	-0.0033782662
26	0xb80fe457	-3.4306515e-05
27	0x3d2f7c6d	0.04284327
28	0xbd522dbc	-0.051313147
29	0xbd9e809b	-0.07739373
30	0xbcc63f9c	-0.024200253
31	0xbc62417f	-0.013809561
32	0x3f9bcf3c	1.2172618
33	0x3f79eb1d	0.9762438
34	0x3f771065	0.9650939
35	0x3f8156bd	1.0104595
36	0x3f7feb01	0.9996796
37	0x3f7b450b	0.98152226
38	0x3f800000	1.0
39	0x3f72680d	0.9469002
40	0x3f800455	1.0001322
41	0x3f708b26	0.93962324
42	0x3f81a49a	1.0128357
43	0x3f80a25e	1.004955
44	0x3f8c5ddb	1.0966142
45	0x3f800000	1.0
46	0x3f855a1d	1.0418125
47	0x3f79a348	0.9751477
48	0x3f800000	1.0
49	0x3f6d27a2	0.926386
50	0x3f800000	1.0
51	0x3f7eb088	0.99488115
52	0x3f6bb205	0.9206851
53	0x3f7d5469	0.98956925
54	0x3f80ec86	1.0072181
55	0x3f81bb76	1.0135334
56	0x3f828a84	1.0198522
57	0x3f7cef53	0.9880268
58	0x3f7ffeb5	0.9999803
59	0x3f85b10d	1.0444657
60	0x3f73fcab	0.95307416
61	0x3f6d3da3	0.92672175
62	0x3f7929f2	0.9732963
63	0x3f7ef632	0.99594414
64	0x3e791558	0.24324548
65	0xbca5052d	-0.02014407
66	0x3d6199f3	0.055078458
67	0x3d9942a4	0.07483414
68	0xbc35ffc8	-0.011108346
69	0x3d87a539	0.066233106
70	0x00000000	0.0
71	0x3d8b789f	0.06810116
72	0x3a9cc61b	0.0011960895
73	0x3d125cda	0.03573308
74	0x3a62bbb9	0.00086491887
75	0x3d404517	0.04694089
76	0x3e28883f	0.16458224
77	0x00000000	0.0
78	0x3dbccba8	0.09218532
79	0xbd1e60a9	-0.0386664
80	0x00000000	0.0
81	0x3ca84a00	0.020543098
82	0x00000000	0.0
83	0xbc8334c5	-0.016016373
84	0x3d04c27a	0.03241203
85	0x3d7ff56e	0.06248992
86	0x3db19395	0.08670727
87	0x3d7bfd0a	0.061520614
88	0x3da982d3	0.08276906
89	0xbc818415	-0.015810052
90	0xbcab1e70	-0.020888537
91	0x3d4d6481	0.050144676
92	0x3cc86992	0.024464402
93	0xbcc82a40	-0.024434209
94	0xbd6901f5	-0.056886632
95	0x3d2905e7	0.041265395
96	0x3db38aa5	0.08766679
97	0xbcca9834	-0.02473078
98	0xbd0db50d	-0.03459649
99	0xbb248894	-0.002510582
100	0xb907a155	-0.00012934704
101	0xbcaff808	-0.021480575
102	0x00000000	0.0
103	0xbd316a36	-0.04331418
104	0x38c9b378	9.6178555e-05
105	0xbda2d1a6	-0.079501435
106	0x3d080ee8	0.03321734
107	0x3b99f3d8	0.004698258
108	0x3db73441	0.089455135
109	0x00000000	0.0
110	0x3d404a5c	0.046945915
111	0xbc963ac0	-0.018338561
112	0x00000000	0.0
113	0xbd930829	-0.07179291
114	0x00000000	0.0
115	0xbb6f1142	-0.0036478792
116	0xbdae5ac5	-0.08513407
117	0xbbb93cc3	-0.0056529953
118	0x3c352cd4	0.011058051
119	0x3bf285bb	0.007401196
120	0x3c1a917e	0.009434102
121	0xbb6d1d0e	-0.0036180648
122	0xb808faee	-3.2658623e-05
123	0x3d13e6fe	0.036108963
124	0xbd4d23e7	-0.050083067
125	0xbd967c4d	-0.07347927
126	0xbcca30dd	-0.024681503
127	0xbc4f1a4e	-0.012640549

sequential_1/lstm_1/lstm_cell_1/Cast_1/ReadVariableOp/resource:0 f4 [32, 128]
0	0x3e6cde8e	0.23131773
1	0xbd81b990	-0.06334221
2	0xbd9960b0	-0.07489145
3	0xbe0398ae	-0.12851211
4	0x3e63fd24	0.22264534
5	0xbdbebf63	-0.09313848
6	0xbab362d1	-0.0013686066
7	0xbe0b52ff	-0.13605879
8	0x3daf0434	0.085457236
9	0xbdceefdb	-0.101043426
10	0x3d31b3ca	0.04338435
11	0x3d079152	0.033097573
12	0xbdff5bd5	-0.124686874
13	0x3caa2b3a	0.020772565
14	0xbd9b1018	-0.07571429
15	0x3da8a2a1	0.08234144
16	0x3db86536	0.090036795
17	0xbe782b13	-0.24235182
18	0x3dcdd58d	0.10050497
19	0xbd6a340d	-0.057178546
20	0xbe0cbec7	-0.13744651
21	0xbe113314	-0.14179641
22	0xbe1061ee	-0.14099857
23	0xbe3ac491	-0.18239047
24	0x3ce92a8b	0.028462669
25	0xbc8fde89	-0.017562168
26	0xbcce5e0d	-0.025191331
27	0x3d92875d	0.07154725
28	0xbde44c5e	-0.111473784
29	0xbe0233e4	-0.12715107
30	0xbc036495	-0.008019586
31	0xbe09da21	-0.13462116
32	0x3e122a00	0.14273834
33	0x3c2e15d2	0.01062532
34	0xbddeebb9	-0.10884804
35	0x3d73bb94	0.05950506
36	0x3da3b65e	0.07993768
37	0xbe0afd3a	-0.13573161
38	0xbe189c27	-0.14903317
39	0x3e03d98d	0.12875958
40	0x3d63a516	0.05557736
41	0xbe03eae3	-0.12882571
42	0xbc418666	-0.011811828
43	0xbe0a156f	-0.13484739
44	0x3d1dcaa5	0.038523335
45	0xbd7155d7	-0.058919754
46	0xbcf0f62e	-0.029414263
47	0xbdb2f717	-0.08738535
48	0x3dc1b433	0.094581984
49	0xbdcb3cd8	-0.099237144
50	0xbe14999e	-0.14511725
51	0xbdef6595	-0.11689297
52	0xbdf2b357	-0.118506126
53	0xbe19cf4f	-0.15020488
54	0xbe7fa3c9	-0.24964823
55	0xbe189138	-0.14899147
56	0x3df8fb6a	0.121573284
57	0x3d2e1f46	0.042510293
58	0x3d9e9ed7	0.0774514
59	0x3ceb2605	0.028704653
60	0xbe436881	-0.19082834
61	0xbe1cd70d	-0.1531641
62	0x3cd66bcb	0.026174447
63	0xbe1eb826	-0.15499935
64	0x3d9d7365	0.076880254
65	0xbd8b8d59	-0.06814069
66	0xbc972d33	-0.01845417
67	0xbd7227a9	-0.059119854
68	0xbcb4f38e	-0.022088792
69	0x3e3112bd	0.17292304
70	0xbcce9993	-0.025219714
71	0xbdc602f0	-0.09668529
72	0xbe02fe62	-0.12792352
73	0xbdf584c0	-0.11988211
74	0xbd36ae27	-0.04459968
75	0x3cbb189f	0.022838889
76	0x3dabcda5	0.08388833
77	0xbda88809	-0.08229072
78	0xbc0b208b	-0.008491646
79	0xbd41031f	-0.047122117
80	0xbe122b99	-0.14274444
81	0xbdd1b1f2	-0.102390185
82	0xbd861fdb	-0.06549045
83	0xbda19dbb	-0.07891413
84	0x3d910ae3	0.070821546
85	0xbccb6743	-0.024829512
86	0x3e2072c4	0.1566878
87	0xbe0b9377	-0.13630472
88	0xbe4dcaf9	-0.20096959
89	0xbd4faca7	-0.050701763
90	0x3db435a0	0.08799291
91	0xbe2d0dfc	-0.16899866
92	0xbdb5221f	-0.08844399
93	0x3da43396	0.08017652
94	0xbc820771	-0.015872689
95	0x3e30b931	0.17258145
96	0xbd2877eb	-0.041129988
97	0xbda39377	-0.07987111
98	0xbd139983	-0.036035072
99	0xbd49f2be	-0.049303763
100	0xbdb5f217	-0.088840656
101	0xbd8b9c9c	-0.0681698
102	0xbc3bdbf2	-0.011466013
103	0xbe52add8	-0.20574129
104	0x3c1f72c8	0.009731956
105	0xbe4f672f	-0.20254205
106	0xbdb6e726	-0.08930807
107	0x3c32bb52	0.010908918
108	0xbd734b85	-0.059398193
109	0xbcb9a8af	-0.022663442
110	0xbd90fc0f	-0.07079326
111	0x3db66c4c	0.08907375
112	0xbb3b0dca	-0.0028542154
113	0xbd9104fa	-0.07081027
114	0x3d749ef3	0.0597219
115	0x3d19d90e	0.037560515
116	0xbe0655a2	-0.13118604
117	0xbdbd0d0b	-0.092310034
118	0x3d9ab77d	0.07554529
119	0xbdaa1d12	-0.08306326
120	0xbe8e9a33	-0.2785202
121	0xbcca7255	-0.02471272
122	0xbd47fbdb	-0.048824172
123	0x3d3cba39	0.046076033
124	0xbd7e92c4	-0.062151685
125	0x3d9d7e79	0.07690138
126	0xbd971e61	-0.07378841
127	0xbdbdb331	-0.09262694
128	0x3caa8edb	0.020820072
129	0x3d1f73c5	0.038928766
130	0x3ce178a0	0.027523339
131	0xbd8b4aab	-0.06801351
132	0xbde6bc21	-0.112663515
133	0x3dfd79ed	0.12376771
134	0x3e0cb7c3	0.13741975
135	0x3c0b05b0	0.008485243
136	0x3d9acaa2	0.075581804
137	0x3e3d5dc7	0.18492804
138	0x3d6ba74f	0.057532605
139	0x3e685b40	0.22691059
140	0x3ea37585	0.31925598
141	0x3b396511	0.0028289
142	0x3d1003f8	0.035160035
143	0x3d912f6f	0.07089125
144	0xbd6b3410	-0.057422698
145	0xbccd2a8a	-0.025044698
146	0x3dd81073	0.105500124
147	0x3dc30687	0.09522729
148	0x3d27f24f	0.041002568
149	0x3e1f400f	0.1555178
150	0x3dd921bd	0.10602138
151	0x3de68132	0.11255111
152	0x3d14e84d	0.03635435
153	0x3ca18528	0.019716814
154	0xbda71f94	-0.0816032
155	0x3df46e26	0.11935072
156	0xbddf5123	-0.109041475
157	0x3dac8eab	0.08425649
158	0xbd619e4a	-0.055082597
159	0xbd28c0bf	-0.041199442
160	0xbce84881	-0.028354885
161	0x3d17e3dc	0.037082538
162	0xbddd07d1	-0.107925065
163	0x3dcc8e37	0.09988063
164	0xbdc98f51	-0.098417886
165	0x3d95e8bc	0.07319781
166	0xbdba8327	-0.091070466
167	0xbd17ac69	-0.037029658
168	0xbcd395cb	-0.025828263
169	0x3d9415da	0.0723073
170	0x3e00466f	0.12526868
171	0x3d1a0dec	0.037610933
172	0x3bba1097	0.005678247
173	0xbdbbb9c1	-0.09166289
174	0xbcab5f34	-0.02091942
175	0x3cd3e6ab	0.025866827
176	0x3d718524	0.058964863
177	0x3dab27cf	0.08357202
178	0x3d436cbe	0.047711127
179	0x3cba097c	0.0227096
180	0xbc445516	-0.011983177
181	0x3bbb57cb	0.005717253
182	0xbc960552	-0.018313084
183	0x3d8fe885	0.070267715
184	0xbc028269	-0.0079656625
185	0xbcb2e2e1	-0.0218367
186	0x3e134ec6	0.14385518
187	0x3cdde8ea	0.027088601
188	0xbccbdf11	-0.02488664
189	0xbafa1d13	-0.0019082151
190	0xbdc425af	-0.095775
191	0x3cd94cb6	0.026525836
192	0x3b4a862a	0.0030902722
193	0xbe10afdd	-0.14129587
194	0x3dc69a96	0.09697454
195	0x3c969e74	0.018386103
196	0xbe1a6834	-0.15078813
197	0x3e79b8e3	0.24386935
198	0xbe5d768f	-0.21627258
199	0x3c7f69ef	0.015589221
200	0x3d888f3a	0.06667943
201	0xbdd7439e	-0.10510944
202	0x3e3a733d	0.18208022
203	0xbda6b49d	-0.08139918
204	0x3dce6583	0.100779556
205	0xbd9cedaf	-0.07662522
206	0x3d894048	0.06701714
207	0x3db05488	0.08609873
208	0x3dd43fb8	0.10363716
209	0x3d176c8c	0.036968753
210	0x3be9d594	0.007136056
211	0x3ddf1eb8	0.10894531
212	0xbd4a719a	-0.049424745
213	0xbe06d8db	-0.13168661
214	0xbe202451	-0.15638854
215	0x3db264d7	0.0871064
216	0xbd338900	-0.043831825
217	0x3cf8128e	0.030282285
218	0x3dde9205	0.10867695
219	0xbdf15b4b	-0.11784991
220	0x3d1700d8	0.03686604
221	0xbdb8d304	-0.09024623
222	0x3dd62c4a	0.10457666
223	0xbd16a6e0	-0.03678024
224	0x3e25ec3e	0.162034
225	0xbdadc70a	-0.08485229
226	0x3da1f4b3	0.07908001
227	0x3db7db7e	0.08977412
228	0x3dad9afb	0.08476826
229	0x3daf9ec4	0.08575204
230	0x3d9605f0	0.07325351
231	0xbd27fdef	-0.041013654
232	0x3da407ee	0.08009325
233	0xbcd2fa1f	-0.025754033
234	0xbe06345b	-0.1310591
235	0xbda9fd94	-0.08300319
236	0x3da48b54	0.08034387
237	0xbdf3ad6a	-0.118983105
238	0x3db6a460	0.08918071
239	0xbdcf683a	-0.101273015
240	0x3b6665e4	0.0035155946
241	0xbdb673b9	-0.08908791
242	0xbd1aa721	-0.037757043
243	0x3c9d48c1	0.01919973
244	0xbbddf36b	-0.0067734024
245	0x3d8c11a4	0.06839302
246	0x3dae48bb	0.08509966
247	0x3d927cc0	0.071527004
248	0x3d4b7ebd	0.049681414
249	0x3d0ddaa8	0.034632355
250	0xbd261a21	-0.040552262
251	0x3d7db2a0	0.06193793
252	0x3d971d36	0.073786184
253	0x3d56e3df	0.05246341
254	0xbddbdee0	-0.107358694
255	0x3dd2a505	0.10285381

sequential_1/lstm_1/lstm_cell_1/Cast/ReadVariableOp/resource:0 f4 [2, 128]
0	0xbc254349	-0.010086843
1	0xbd38a042	-0.04507471
2	0x3db8d94c	0.09025821
3	0xbdeb4e71	-0.11489571
4	0xbd93a32b	-0.07208856
5	0xbdcc4a1e	-0.09975074
6	0x3ce5c0d8	0.028046057
7	0xbdc345e5	-0.09534816
8	0xbd1faec1	-0.038985018
9	0xbe918358	-0.2842052
10	0xbe2c5bc7	-0.16831885
11	0xbc84345d	-0.01613825
12	0xbe225931	-0.15854336
13	0x3e275049	0.1633922
14	0x3ca55fe9	0.020187335
15	0xbdecfcf1	-0.11571682
16	0xbe2358e9	-0.15951885
17	0xbde92ac9	-0.11385114
18	0xbd3a5474	-0.045490697
19	0xbe45ba28	-0.19309294
20	0xbd7ca7ce	-0.06168347
21	0x3d7611e4	0.060075656
22	0xbe458d8a	-0.19292274
23	0xbd172ccd	-0.03690796
24	0x3d645358	0.055743545
25	0xbdf3e592	-0.119090214
26	0x3da22630	0.0791744
27	0xbd89bb8a	-0.06725223
28	0xbe7211eb	-0.23639648
29	0xbe70ba70	-0.2350862
30	0x3d8e610b	0.06952103
31	0x3e49e8f3	0.1971777
32	0x3d64a246	0.05581882
33	0x3ca038f3	0.019558406
34	0xbe8165fe	-0.25273126
35	0xbd237aee	-0.039912157
36	0x3d83b41c	0.064308375
37	0xbe479fd6	-0.19494566
38	0x3e1e7ad9	0.1547655
39	0x3e1da8e0	0.15396452
40	0x3e19eea1	0.15032436
41	0xbe53a06f	-0.2066667
42	0x3b7167a6	0.003683546
43	0x3d41271d	0.047156442
44	0xbdf2a65e	-0.11848138
45	0x3dd5c5ea	0.1043814
46	0x3dbdf630	0.09275472
47	0x3d00309c	0.031296358
48	0xbc88ca70	-0.016698092
49	0xbe80dcfa	-0.25168592
50	0x3e12d169	0.14337696
51	0xbb26efd9	-0.002547255
52	0x3dd27317	0.10275858
53	0xbe3a3204	-0.18183142
54	0xbdfc91d1	-0.123325
55	0x3dfde6c8	0.12397534
56	0x3e00ef80	0.12591362
57	0x3da53c1b	0.08068105
58	0xbd06eb05	-0.032938976
59	0x3dce6d5f	0.10079455
60	0xbd3f1665	-0.046652216
61	0xbcbd5993	-0.023114001
62	0xbe15e3b1	-0.14637639
63	0x3da2c18f	0.079470746
64	0x3da31892	0.07963671
65	0x3c6cd9f4	0.014456261
66	0x3e7d2c50	0.24723935
67	0x3d4a937a	0.04945705
68	0xbd58b3cd	-0.052905846
69	0xbdca8b8c	-0.09889898
70	0xbe2a1a96	-0.16611704
71	0x3e73b05e	0.23797747
72	0x3d953cdf	0.07287001
73	0xbda85d6c	-0.08220944
74	0x3daa5580	0.08317089
75	0x3de291c9	0.110629626
76	0x3b8b0a93	0.004243204
77	0xbe0f15f2	-0.13973215
78	0x3e861544	0.261881
79	0x3de42da6	0.11141519
80	0xbe32d291	-0.17463137
81	0x3cd7ad58	0.026327774
82	0xbe599f28	-0.2125212
83	0x3ce1ba94	0.027554788
84	0xbc8e6d5e	-0.017386135
85	0x3e3cad3a	0.18425456
86	0x3c02d820	0.0079860985
87	0xbd1bf572	-0.03807587
88	0x3e96356a	0.29337627
89	0xbe1af150	-0.15131116
90	0xbc0b436c	-0.008499961
91	0x3e1b0df6	0.15142044
92	0x3e57286e	0.21011516
93	0x3e2d5429	0.16926636
94	0xbd1ac854	-0.037788704
95	0x3e30a7ab	0.1725146
96	0xbe3b19ae	-0.18271515
97	0x3ce6b73b	0.028163543
98	0xbdeee1f2	-0.116641894
99	0xbe1c9eda	-0.15294972
100	0xbe15ccce	-0.14628908
101	0xbe734a17	-0.23758732
102	0xbdd0f523	-0.10203006
103	0xbe79e92a	-0.24405351
104	0x3c8f61e0	0.017502725
105	0xbc9bf597	-0.019038005
106	0xbdeebf7c	-0.116576165
107	0x3e4b1a65	0.19834287
108	0xbdd10805	-0.10206608
109	0xbe379e4e	-0.17931482
110	0x3e1520fe	0.14563367
111	0xbcad24a7	-0.021135641
112	0x3dd90a22	0.10597636
113	0xbd0d16f6	-0.034445725
114	0x3bc871a0	0.006117061
115	0x3cee4a82	0.029088262
116	0xbd3daac3	-0.04630543
117	0xbda354ab	-0.079751335
118	0xbde0d95b	-0.10978957
119	0xbd86ce15	-0.06582276
120	0x3e4940af	0.19653581
121	0xbd69ab01	-0.057047848
122	0x3df90143	0.12158444
123	0xbda4b4c8	-0.08042294
124	0xbd05972a	-0.032614864
125	0xbdd1d8d1	-0.102464326
126	0xbc36cc5f	-0.011157124
127	0xbd2d6487	-0.0423322
128	0xbe8e2c52	-0.2776819
129	0xbb2e77e9	-0.0026621765
130	0xbe18010e	-0.14844152
131	0xbd91c3d8	-0.07117432
132	0x3e2981ef	0.16553472
133	0x3e2edafb	0.17075722
134	0x3d25f67c	0.04051827
135	0x3c926d35	0.01787434
136	0x3e181a74	0.14853841
137	0xbd687ad3	-0.05675776
138	0x3dfdd619	0.123943515
139	0x3cd1cefa	0.02561139
140	0x3e084d66	0.13310775
141	0xbe24bce1	-0.16087677
142	0xbe2a2fae	-0.16619751
143	0x3dbd1f5e	0.092344984
144	0x3dec5f96	0.11541669
145	0xbb4ade6e	-0.0030955332
146	0x3e1d166b	0.15340583
147	0xbd68f504	-0.05687429
148	0x3d95c9c6	0.07313876
149	0xbdde4e78	-0.108548105
150	0x3dcac5c0	0.09900999
151	0x3d812317	0.06305521
152	0x3e20aa0d	0.15689869
153	0xbd4f6d09	-0.050641093
154	0x3c983a38	0.018582448
155	0x3dbcc4dd	0.09217236
156	0xbde4d611	-0.111736424
157	0xbe8cd548	-0.2750647
158	0x3df96f33	0.12179413
159	0xbe157d55	-0.14598592
160	0x3d82d660	0.06388545
161	0xbe40f23f	-0.1884241
162	0xbdfec882	-0.124405876
163	0x3cf46c7b	0.029836884
164	0x3da08d31	0.0783943
165	0x3dc00194	0.09375301
166	0x3e2a42ff	0.1662712
167	0x3d121396	0.03566321
168	0xbdce3c18	-0.10070056
169	0x3d8488d0	0.064714074
170	0xbe4c26e9	-0.19936718
171	0x3df60c47	0.120140605
172	0x3e47ac2b	0.1949927
173	0xbe327456	-0.17427191
174	0x3e667e2c	0.22509068
175	0xbd1161d2	-0.03549368
176	0x3d9641c2	0.07336761
177	0x3d44d51b	0.048054796
178	0xbd2cd6c4	-0.042197004
179	0x3d2e0965	0.042489428
180	0x3c4aa4e3	0.012368414
181	0xbd211607	-0.039327648
182	0xbe34d296	-0.17658457
183	0xbe15b6b8	-0.14620483
184	0xbc8f43a7	-0.017488314
185	0xbd3d20a7	-0.046173718
186	0xbe19cccf	-0.15019535
187	0x3d39a357	0.04532179
188	0xbe3da037	-0.18518148
189	0xbd12d2cb	-0.03584556
190	0x3db03503	0.08603861
191	0x3e2c9429	0.16853394
192	0x3d2271ea	0.03965942
193	0x3dca19b6	0.09868185
194	0xbe35b9b4	-0.17746621
195	0x3e70b306	0.23505792
196	0x3d3c1d3e	0.045926325
197	0x3e3fec10	0.18742394
198	0xbe08085f	-0.13284443
199	0x3cb8634a	0.022508282
200	0xbdb48c5f	-0.08815836
201	0x3e70ed5c	0.23528045
202	0xbe496374	-0.19666845
203	0x3e662613	0.22475462
204	0x3e443e91	0.19164492
205	0xbd378a3c	-0.044809565
206	0x3e38486e	0.1799638
207	0xbe4d162c	-0.20027989
208	0xbdc706a7	-0.09718066
209	0x3e44a464	0.19203335
210	0xbdda076b	-0.10645946
211	0xbe6e7bc7	-0.23289405
212	0x3ddbbba6	0.107291505
213	0x3d29ec13	0.041484904
214	0x3d16f7bf	0.036857363
215	0x3e919063	0.2843047
216	0x3d811b11	0.06303991
217	0x3e43684e	0.19082758
218	0xbdbf10bc	-0.09329364
219	0x3e73da90	0.23813844
220	0xbd322d28	-0.043500096
221	0xbcbe1fdd	-0.023208553
222	0x3d4f9cab	0.05068652
223	0x3e4197c1	0.18905546
224	0xbe663fd6	-0.22485289
225	0xbdc46ef7	-0.09591477
226	0xbc9fcf33	-0.01950798
227	0x3e115c05	0.14195259
228	0xbc77ebe2	-0.015131922
229	0x3e27f452	0.16401795
230	0x3e402b6b	0.18766563
231	0xbe3177b4	-0.1733082
232	0xbd9fde6a	-0.07806094
233	0xbe77ca99	-0.24198379
234	0x3dbc7dad	0.09203658
235	0xbdbff7bd	-0.09373424
236	0xbdc18bbf	-0.094504826
237	0x3e15e4f5	0.14638121
238	0xbdc8f9e3	-0.09813287
239	0x3dcd3c55	0.10021273
240	0xbc618600	-0.013764858
241	0x3db5c85b	0.088761054
242	0xbe400402	-0.18751529
243	0xbe5cbf7c	-0.2155742
244	0xbd04b1e6	-0.03239622
245	0xbd2ec1d1	-0.042665306
246	0xbe0d2f71	-0.13787629
247	0x3da4f99d	0.080554225
248	0x3d4e8b4c	0.050425813
249	0xbe31b38f	-0.17353652
250	0x3da5093f	0.08058404
251	0xbe352c63	-0.17692713
252	0xbd16f101	-0.036850933
253	0xbe0c627e	-0.13709447
254	0x3d800adb	0.062520705
255	0x3e0fed3f	0.14055346
